notebooks/Enhance_Particle_Simulation/models/particle_model.pth (torch, 48596 bytes, 8 tensors)

weight f4 [128, 3]
0	0x3e37ac9f	0.17936943
1	0x3ec4ad23	0.38413343
2	0xbc0f8db0	-0.008761808
3	0x3e12c8dc	0.14334434
4	0x3ebf089d	0.3731126
5	0x3e1f7b55	0.15574391
6	0x3ed4d059	0.41565207
7	0x3e7c4caf	0.24638627
8	0x3ee8fb2c	0.4550413
9	0xbdd8b167	-0.10580712
10	0xbe624bd0	-0.22099233
11	0x3e15c795	0.14626916
12	0x3ee95ac8	0.45577073
13	0xbe9be2a1	-0.30446342
14	0x3f1d2f4f	0.6140031
15	0x3f117f1e	0.5683459
16	0x3ea7057e	0.32621378
17	0xbec239f6	-0.37934846
18	0x3e35ca46	0.17752942
19	0xbe865ede	-0.26244253
20	0xbe87b802	-0.26507574
21	0x3ed9dd37	0.42551586
22	0x3ebfbd06	0.374489
23	0xbeef5e8d	-0.46751824
24	0x3e37628a	0.17908683
25	0xbe6ec08b	-0.23315637
26	0x3df7cf6b	0.12100109
27	0x3f09cdce	0.5382966
28	0x3e194df0	0.14971137
29	0xbef9e4ad	-0.48807278
30	0xbeacafda	-0.33727914
31	0xbe8d6b1e	-0.27620786
32	0xbdb82052	-0.089905396
33	0x3e3d24bd	0.18471046
34	0x3e25b2b3	0.1618145
35	0x3f086615	0.53280765
36	0xbe81b2b5	-0.25331655
37	0x3beb8982	0.007188023
38	0xbee64fc4	-0.4498273
39	0x3ed433d8	0.41445804
40	0xbe634a82	-0.22196391
41	0xbf16ca0d	-0.58902055
42	0xbec54562	-0.38529497
43	0x3e4b9084	0.19879347
44	0xbe5bb593	-0.21455984
45	0xbe02fa8f	-0.12790893
46	0xbe143f2f	-0.14477228
47	0x3df7c7e5	0.12098674
48	0xbd49df6a	-0.04928533
49	0xbec0b88a	-0.37640792
50	0x3e9743a1	0.29543784
51	0x3f0207d3	0.5079319
52	0xbe141559	-0.14461268
53	0x3edaf281	0.4276314
54	0xbea3f6e4	-0.320243
55	0x3e0fa395	0.14027245
56	0xbdfcee78	-0.12350172
57	0xbeac1db4	-0.33616412
58	0x3edd2848	0.43194795
59	0xbe2553a6	-0.1614519
60	0x3e52596a	0.20541921
61	0xbefdc52f	-0.49564502
62	0x3f0ae555	0.5425618
63	0xbea0bb0d	-0.31392708
64	0x3e243863	0.16037135
65	0x3ebbfbdb	0.36715588
66	0x3e35037f	0.17677115
67	0x3e885fe5	0.26635662
68	0x3f06f861	0.52722746
69	0x3d28505e	0.04109227
70	0xbe1c2f26	-0.1525236
71	0xbf06511d	-0.5246752
72	0xbe133fc7	-0.14379798
73	0xbe13332e	-0.14374992
74	0xbed8a381	-0.42312244
75	0x3c7ea908	0.01554323
76	0x3d2accdd	0.04169928
77	0xbeade05d	-0.33960238
78	0x3ed43aeb	0.414512
79	0xbde0b238	-0.109714925
80	0xbeb4db9a	-0.35323793
81	0x3f075dda	0.5287758
82	0x3e9b99f4	0.30390894
83	0x3e3760ee	0.1790807
84	0xbdbdddd1	-0.09270824
85	0x3d2266d9	0.039648864
86	0xbec2a209	-0.38014248
87	0xbf10911d	-0.56471425
88	0xbeed35a8	-0.4633
89	0x3e77254e	0.24135324
90	0x3e178df2	0.14800242
91	0xbee2663a	-0.44218618
92	0x3eef8449	0.46780613
93	0x3ee24d45	0.44199577
94	0xbdb62519	-0.088937946
95	0x3d8a0d83	0.067408584
96	0xbf011993	-0.5042965
97	0x3e363b3c	0.17796034
98	0xbf077432	-0.52911675
99	0xbf2393e8	-0.6389756
100	0xbe705f0b	-0.23473756
101	0x3d14bb8d	0.036311675
102	0x3ed241a5	0.41065708
103	0x3e97f6cd	0.29680482
104	0x3e990908	0.29889703
105	0xbe1f5cde	-0.1556277
106	0xbe16db28	-0.14732039
107	0xbc7488ef	-0.014925226
108	0x3ebd45b0	0.3696723
109	0x3e28d1af	0.16486238
110	0xbf09ed59	-0.5387779
111	0xbea66e33	-0.3250595
112	0xbe04ab1f	-0.12955903
113	0xbf0620d0	-0.5239382
114	0xbcea735f	-0.028619466
115	0x3ebb8b02	0.36629492
116	0x3c9b97d1	0.01899329
117	0x3f076bdf	0.52898973
118	0xbc5965ca	-0.013268897
119	0xbe8b9b50	-0.27266932
120	0x3df9972f	0.12187039
121	0x3d855702	0.06510736
122	0x3e18b8ec	0.14914292
123	0xbf0ef74d	-0.558461
124	0xbe2b7652	-0.16744354
125	0x3d9f5b7d	0.07781122
126	0x3ea49364	0.321437
127	0x3ec124b4	0.37723315
128	0xbf0017f2	-0.5003654
129	0xbeaad90f	-0.33368728
130	0x3dc78660	0.09742427
131	0x3e822064	0.25415337
132	0x3f0d8d88	0.55294085
133	0xbdc38982	-0.09547712
134	0x3e3dad1c	0.18523067
135	0xbeefde98	-0.46849513
136	0xbe184634	-0.1487053
137	0xbed0fc35	-0.4081742
138	0xbedfb6d5	-0.43694177
139	0xbe13c4a8	-0.14430487
140	0xbebe227b	-0.37135682
141	0x3e85f257	0.26161453
142	0xbea3de12	-0.32005364
143	0xbf2bcb2a	-0.6710688
144	0xbee1068a	-0.439503
145	0x3d587664	0.05284728
146	0x3e9df32c	0.30849588
147	0xbeccb427	-0.39981195
148	0xbe68095b	-0.22659819
149	0x3f116ab1	0.56803423
150	0x3d06cbb4	0.03290911
151	0x3ec571c9	0.38563374
152	0xbebea253	-0.3723322
153	0x3ee11fce	0.43969578
154	0xbf0d75f7	-0.55258125
155	0xbef990f5	-0.48743406
156	0x3d86d441	0.06583453
157	0xbc53d11b	-0.012928273
158	0x3ed2d26d	0.41176167
159	0x3e7b34ea	0.24531904
160	0x3e496890	0.19668794
161	0x3f0dc765	0.55382377
162	0xbeba3e8a	-0.3637584
163	0x3e3776be	0.1791639
164	0xbf03b42e	-0.5144681
165	0xbf0b2e43	-0.54367465
166	0x3db1e4d7	0.08686226
167	0xbe4ce983	-0.20010953
168	0x3f20884f	0.6270799
169	0xbe1663d6	-0.14686522
170	0xbe76c4f5	-0.2409857
171	0xbf204fe4	-0.62621903
172	0xbea6ae83	-0.32555017
173	0x3f2561b7	0.64602226
174	0xbeebfc54	-0.4609095
175	0xbddc5acf	-0.10759508
176	0x3e4a4cff	0.19755934
177	0x3e5ec38b	0.21754281
178	0xbe422da4	-0.18962723
179	0x3ddbd427	0.10733824
180	0xbeb5e80a	-0.35528594
181	0x3efa4930	0.48883963
182	0x3f0a2f46	0.53978384
183	0xbe58d3ac	-0.21174496
184	0xbe135591	-0.1438811
185	0x3f1a0528	0.6016412
186	0xbe926da6	-0.2859928
187	0x3ea5b981	0.3236809
188	0xbc0604a8	-0.008179821
189	0xbdc23f38	-0.09484714
190	0x3c6c2dd2	0.014415221
191	0x3e19d403	0.15022282
192	0x3e9f6596	0.3113219
193	0x3e66c615	0.225365
194	0x3d535701	0.051596645
195	0xbeec37be	-0.46136278
196	0x3d38602c	0.04501359
197	0x3f037f03	0.5136568
198	0xbeabc05d	-0.335452
199	0x3e8317fa	0.2560423
200	0xbf0bace5	-0.5456069
201	0x3e9f644f	0.31131217
202	0x3f094cba	0.536327
203	0xbd5e02c1	-0.054201845
204	0x3eac3c73	0.3363987
205	0xbdc38a0f	-0.09547817
206	0xbcaef6f3	-0.021357989
207	0xbf0a1e75	-0.53952724
208	0x3e23ec73	0.16008167
209	0xbed2123c	-0.41029537
210	0x3e19cedd	0.15020318
211	0x3e3c2c91	0.18376376
212	0x3d10ed48	0.03538254
213	0xbf0298ea	-0.5101458
214	0xbe1cbc19	-0.15306129
215	0x3ee0f803	0.43939218
216	0x3eba326b	0.3636659
217	0xbdab9562	-0.08378102
218	0xbf1294b7	-0.5725817
219	0xbdfcc963	-0.12343099
220	0xbd648ecd	-0.055800248
221	0xbef64bbf	-0.48104665
222	0xbe555135	-0.2083176
223	0x3ddeab31	0.10872496
224	0xbeed1478	-0.4630468
225	0x3eefdf1f	0.46849915
226	0x3ed2da69	0.4118226
227	0xbeb271d6	-0.34852475
228	0x3c729db4	0.014808107
229	0x3df6eeb9	0.120572515
230	0x3cddad43	0.027060157
231	0xbf046aa8	-0.51725245
232	0x3dc528a5	0.09626893
233	0xbe751d99	-0.23937072
234	0xbede3e1e	-0.43406767
235	0xbe8c467a	-0.2739752
236	0xbf0a73cf	-0.5408296
237	0xbf00c741	-0.5030404
238	0x3d126a12	0.035745688
239	0xbea522f5	-0.32253233
240	0xbe6838ef	-0.22677968
241	0x3c969d87	0.018385662
242	0xbea1cb6d	-0.31600514
243	0x3d4fb2b6	0.05070754
244	0xbdc96f3b	-0.09835669
245	0x3d6baa6f	0.057535585
246	0x3ea1778c	0.3153652
247	0xbe1fabe3	-0.15592913
248	0xbe8b7089	-0.27234295
249	0x3e957aaf	0.29195163
250	0xbd6e48c9	-0.058174882
251	0x3f074add	0.5284861
252	0xbf0c40c8	-0.5478635
253	0xbe1b5e79	-0.15172757
254	0x3edcb380	0.43105698
255	0xbf0a2cac	-0.53974414

bias f4 [128]
0	0x3eda7ac1	0.4267178
1	0xbf09dc08	-0.53851366
2	0x3e61e8a2	0.22061399
3	0xbd184044	-0.037170663
4	0x3eb46b04	0.35237896
5	0xbf222cb7	-0.6334948
6	0x3efbec0d	0.4920353
7	0xbf1b061b	-0.6055619
8	0x3f178ce2	0.59199345
9	0xbe9bfccb	-0.30466303
10	0x3e8381be	0.25684923
11	0xbe32af78	-0.17449749
12	0x3e2ddb82	0.16978267
13	0xbed46464	-0.41482842
14	0x3ef2daa4	0.47432435
15	0xbe36f8f5	-0.17868407
16	0xbe838f44	-0.2569524
17	0xbed20c2c	-0.4102491
18	0xbdd3543c	-0.10318801
19	0xbf089e94	-0.5336697
20	0xbc860887	-0.016361488
21	0xbebd99c2	-0.3703137
22	0x3ca95382	0.020669702
23	0xbeeb16c0	-0.45915794
24	0xbe59337b	-0.21211044
25	0xbf109f9e	-0.56493556
26	0x3ea8d53d	0.32975188
27	0xbee182f2	-0.44045216
28	0xbf0cef82	-0.5505296
29	0xbee666e8	-0.45000386
30	0x3f0b7488	0.5447469
31	0x3e9ece7a	0.31016904
32	0x3ee1d175	0.44105116
33	0x3efaaed8	0.4896152
34	0xbe147dea	-0.14501157
35	0xbd9ed2bd	-0.07755039
36	0xbe65030c	-0.22364444
37	0x3e2bfffc	0.16796869
38	0x3dd98482	0.10620977
39	0xbda76fe2	-0.08175637
40	0x3eab80dc	0.3349675
41	0xbe59aa79	-0.21256436
42	0x3ef7b794	0.48382246
43	0xbf09c471	-0.5381537
44	0x3f1b8c53	0.6076099
45	0xbedc8bcd	-0.4307541
46	0x3e8bd4fb	0.2731093
47	0x3eb0551f	0.34439942
48	0x3e8925c4	0.26786625
49	0x3efa1ba5	0.48849216
50	0xbf0c4ec6	-0.548077
51	0xbe507e72	-0.20360735
52	0xbe3ca20b	-0.1842119
53	0x3eaf538e	0.34243435
54	0x3c204d36	0.0097840335
55	0xbef22463	-0.47293386
56	0x3d4a8276	0.049440823
57	0x3be93ff8	0.0071182214
58	0x3ddbd676	0.107342646
59	0x3eb4eb34	0.35335696
60	0xbe1564cb	-0.1458923
61	0xbdc8f214	-0.09811798
62	0x3e89a325	0.26882282
63	0x3efec9a1	0.49763206
64	0xbee57979	-0.4481924
65	0xbe4c7dda	-0.19969884
66	0x3e32e7d5	0.1747125
67	0x3c28aa7c	0.010294553
68	0x3e9d91e6	0.30775374
69	0x3ed13d3c	0.4086703
70	0xbeba64ce	-0.36405033
71	0xbe9658c1	-0.2936459
72	0x3f0bf76a	0.546744
73	0x3eca046e	0.39456505
74	0x3cb77ea7	0.02239926
75	0xbca2c179	-0.019867646
76	0x3da0328a	0.078221396
77	0xbda7de7b	-0.08196732
78	0x3f15b5e1	0.5848065
79	0xbe5f0775	-0.21780188
80	0xbef63e83	-0.48094568
81	0xbe9ab56d	-0.30216542
82	0x3ecd3e90	0.40086794
83	0x3deef66c	0.11668095
84	0xbdb2d115	-0.087312855
85	0x3e336969	0.1752068
86	0xbee561dd	-0.44801226
87	0xbbe467db	-0.0069703883
88	0x3d3e4af8	0.046458215
89	0xbe05f144	-0.13080317
90	0x3e8f3c99	0.2797592
91	0xbf0951d8	-0.5364051
92	0x3e964b94	0.29354537
93	0xbecc5fe0	-0.39916897
94	0xbe2793be	-0.16364953
95	0xbed61119	-0.4180992
96	0x3d7052b1	0.05867261
97	0x3d8a3818	0.0674898
98	0x3e518985	0.20462616
99	0x3eaa5c40	0.33273506
100	0x3e97dc4b	0.29660258
101	0xbe5bd81f	-0.21469162
102	0x3ed1954f	0.40934226
103	0x3dfb6ea0	0.122769594
104	0x3ef2fd4d	0.47458878
105	0x3e228d5b	0.15874235
106	0x3e88ca2a	0.2671674
107	0x3ee1dab6	0.44112176
108	0xbe0690ad	-0.13141127
109	0x3e7c8193	0.24658804
110	0xbdb26c21	-0.0871203
111	0x3e507628	0.20357573
112	0xbd434f38	-0.04768297
113	0xbdc14ce6	-0.09438495
114	0x3ea0f86a	0.31439525
115	0xbdf45baf	-0.1193155
116	0x3f322d65	0.69600517
117	0xbec36dcf	-0.38169715
118	0x3e8b3348	0.27187562
119	0xbd13df00	-0.03610134
120	0xbec58634	-0.3857895
121	0xbeab4c5f	-0.33456704
122	0xbeb22953	-0.34797153
123	0xbed70bfc	-0.4200133
124	0x3f03f1ba	0.5154072
125	0x3ecbdc93	0.39816722
126	0x3e114b6b	0.14188926
127	0x3f0a3941	0.5399361

weight f4 [64, 128]
0	0xbcb220a6	-0.021744084
1	0x3cc5069e	0.024051007
2	0x3d041b36	0.032252513
3	0xbb00d5ef	-0.0019658764
4	0xbd2f3f90	-0.042785227
5	0xbd7293c0	-0.059222937
6	0xbe1761ab	-0.14783351
7	0x3c193ec1	0.009353341
8	0xbd2d869e	-0.04236471
9	0xbd806c1e	-0.06270622
10	0xbcf7ca48	-0.030247822
11	0x3c31c696	0.010850569
12	0xbc9b84bd	-0.018984193
13	0xbccf43ad	-0.025300825
14	0x399bd14d	0.00029719845
15	0x3b180146	0.0023194118
16	0x3bf9a03e	0.0076179793
17	0xbcea2289	-0.02858092
18	0x3dbf7706	0.09348874
19	0xbcca92d6	-0.02472822
20	0xbda609d5	-0.08107344
21	0x3d672b5f	0.056437846
22	0xbafa53b0	-0.0019098427
23	0xbe07f919	-0.13278617
24	0x3dbe18d4	0.09282079
25	0x3cc56e74	0.02410052
26	0xbea8fa5c	-0.3300351
27	0xbc8807c6	-0.01660527
28	0x3d16b467	0.03679314
29	0xbd87aebf	-0.06625127
30	0xbe6dd091	-0.23224093
31	0xbe5bfb3f	-0.21482562
32	0x3d84118c	0.06448659
33	0x3d65de0b	0.05611996
34	0x3c96d1bb	0.018410554
35	0x3d08f6da	0.03343854
36	0xbd946455	-0.07245699
37	0x3cc69877	0.024242623
38	0xbd340a8c	-0.04395537
39	0xbdcd8081	-0.10034276
40	0x3bda0633	0.006653571
41	0x3c493cd7	0.012282572
42	0x3d03e907	0.032204654
43	0x3cf61f61	0.03004426
44	0xbc90f630	-0.017695516
45	0x3cc43e73	0.02395556
46	0xbd34f655	-0.044180233
47	0xbcfd21e6	-0.030899953
48	0x3d742f03	0.059615146
49	0x3b984a0d	0.0046474994
50	0xbc331be5	-0.010931944
51	0x3d90c63a	0.07069059
52	0xbca5f99b	-0.020260623
53	0xbc45caec	-0.012072306
54	0xbc0eeefd	-0.008723971
55	0x3d00f4c5	0.03148343
56	0xbe91c2de	-0.28468984
57	0x3da650d8	0.081208885
58	0xbce9f79c	-0.028560452
59	0xbee30698	-0.44340968
60	0xbd17ae66	-0.037031554
61	0x3d0fd966	0.035119437
62	0x3ba6afe9	0.005086888
63	0x3b900fc1	0.0043964093
64	0xbd2389a3	-0.039926182
65	0x3d23ef8e	0.04002338
66	0x3c2e3b4b	0.010634254
67	0xbc806f62	-0.015678111
68	0xbee597b2	-0.44842297
69	0x3d54d6c2	0.05196262
70	0x3d69f2e3	0.0571164
71	0x3d9ffb27	0.078115754
72	0xbceb2ca8	-0.028707817
73	0xbd14404e	-0.03619414
74	0xbb172bd2	-0.002306689
75	0x3a8f1eb8	0.0010919189
76	0x3d81aab6	0.06331389
77	0x3d209de1	0.039213065
78	0x3c2a6ab0	0.010401413
79	0xbbe5a8ec	-0.0070086624
80	0xbb5b4512	-0.0033457917
81	0xbda199e9	-0.07890684
82	0xbec452ee	-0.3834452
83	0xbc19ae28	-0.009379901
84	0xbd5f8948	-0.05457428
85	0xbc37faeb	-0.011229257
86	0xbcd07ba0	-0.025449574
87	0x3da9ab1b	0.08284589
88	0xbd7e8d0e	-0.06214624
89	0x3d3d6c21	0.046245698
90	0x3d34f9e3	0.044183623
91	0x3d9cfea8	0.07665759
92	0x3da2ceae	0.07949577
93	0xbce1a2c0	-0.027543426
94	0x391e0ca6	0.00015072766
95	0x3cf5c463	0.030000871
96	0x3d8e12e4	0.06937197
97	0xbdf98e0f	-0.12185299
98	0x3d3696a7	0.044577267
99	0x3cf71966	0.030163478
100	0xbd8ea400	-0.06964874
101	0xbda6a583	-0.081370376
102	0xbdec96ad	-0.115521766
103	0xbc8a16d2	-0.016856585
104	0x3d6a1c37	0.057155814
105	0xbd894405	-0.06702427
106	0x3d9b8c5b	0.0759513
107	0x3c8c6be3	0.017141288
108	0x3d775897	0.06038722
109	0xbc356091	-0.0110703865
110	0xbcce9851	-0.025219114
111	0x3cc4fa8a	0.024045248
112	0x3c873209	0.01650335
113	0xbd55f835	-0.05223866
114	0x3d981f1a	0.07427807
115	0xbd8cfab2	-0.06883754
116	0xbdee4e93	-0.116360806
117	0xbcb61846	-0.022228371
118	0xbd0efa18	-0.034906477
119	0xbe09378b	-0.13400094
120	0xbc69945b	-0.014256562
121	0x3d8729c7	0.06599765
122	0x3d17f3f4	0.037097886
123	0x3c29aefe	0.010356663
124	0x3b4f914e	0.0031672302
125	0x3b898fa2	0.0041980306
126	0x3c222dee	0.009898646
127	0xbcd11ada	-0.0255255
128	0x3ba1a8af	0.0049334387
129	0x3d63f0e8	0.055649668
130	0x3bf6d687	0.007532898
131	0xbd53a0ad	-0.051666904
132	0x3d066e2d	0.032819916
133	0xbd2e1cd9	-0.04250798
134	0xbf0e0fd9	-0.5549293
135	0xbd67ff0d	-0.05663972
136	0xbec886fa	-0.3916548
137	0xbd35ef65	-0.044417758
138	0xbb94732b	-0.0045303307
139	0x3b7b5654	0.0038351016
140	0xbdc0df95	-0.09417645
141	0xbdf935e8	-0.12168485
142	0xbd2a3c60	-0.041561484
143	0x3ca66c85	0.020315418
144	0xbd522fff	-0.051315304
145	0x3c33eb51	0.010981397
146	0x3d5cfc34	0.053951457
147	0x3d9d0c4e	0.076683626
148	0xbd2ec261	-0.042665843
149	0xbb3f7c64	-0.002921843
150	0x3cc76638	0.024340734
151	0xbde7a101	-0.11310006
152	0xbda44615	-0.080211796
153	0xbcff9111	-0.031197103
154	0xbef3e0aa	-0.47632343
155	0x3bd44d39	0.006478932
156	0xbdf7c52b	-0.12098154
157	0xbd4048d4	-0.046944454
158	0xbdab76cb	-0.08372267
159	0x3da2cf55	0.07949702
160	0x3b92df02	0.004482151
161	0x3daf06c2	0.08546211
162	0x3d84acb2	0.064782515
163	0x3cb67472	0.022272322
164	0xbd4d201e	-0.050079457
165	0xbd8cbb9a	-0.0687172
166	0x3da38aa4	0.07985428
167	0xbdd1c1e3	-0.10242059
168	0x3c841d4f	0.016127257
169	0xbcb399a0	-0.02192384
170	0x3ad69eca	0.0016374227
171	0x3bf88a15	0.00758482
172	0x3b9d3e02	0.0047986517
173	0xbd1ea32b	-0.038729828
174	0x3c9e4bb5	0.01932321
175	0xbdb9bc8c	-0.090691656
176	0x3d3a780f	0.045524653
177	0x3d70f082	0.058823116
178	0xbc9d5087	-0.019203437
179	0x3d6a1b5d	0.057155002
180	0xbbddc209	-0.0067675156
181	0xbb1e301c	-0.0024137562
182	0xbc8c5437	-0.01713
183	0xbc34c564	-0.01103339
184	0xbdc6774d	-0.096907236
185	0x3d6977a2	0.056998856
186	0x3d075baa	0.033046402
187	0xbee24050	-0.44189692
188	0xbcf8818b	-0.030335208
189	0x3d8f4ce1	0.06997085
190	0x3c81a4ce	0.015825655
191	0x3d99e4f9	0.07514376
192	0x3d647443	0.05577494
193	0x3ce3ee78	0.027823672
194	0x3b186399	0.0023252724
195	0x3d79f871	0.061027948
196	0xbd9fa9c3	-0.07796051
197	0xbd40a8c1	-0.047035936
198	0x3d26f893	0.040764403
199	0x3dc9c8f1	0.0985278
200	0xbd908736	-0.070570394
201	0xbd25a2e5	-0.04043855
202	0xbdb24d7d	-0.08706186
203	0x3c311238	0.010807566
204	0x3dc07815	0.09397904
205	0xbb4f2d09	-0.0031612536
206	0xbe55e84d	-0.20889397
207	0x3d031aad	0.032007862
208	0xbce564a2	-0.028002087
209	0x3d1e4c91	0.03864724
210	0xbf23d0e8	-0.6399064
211	0x3cd31df2	0.025771115
212	0xbb12503e	-0.002232566
213	0x3dd69a1b	0.10478612
214	0x3d8f570e	0.06999026
215	0xbbae7305	-0.00532377
216	0x3c298250	0.01034601
217	0xbd23a1cc	-0.039949223
218	0xbf12e159	-0.57375103
219	0xbbe36310	-0.0069392994
220	0x3d5949c7	0.053048875
221	0xbd413d7c	-0.047177777
222	0xbd8fe42d	-0.07025943
223	0x3da0ad7a	0.07845588
224	0x3c3b0a96	0.011416098
225	0x3ab1bd1c	0.0013560387
226	0x3dc1fe4f	0.09472334
227	0xbc8181fa	-0.015809048
228	0x3cbe298a	0.023213167
229	0xbd49939a	-0.04921303
230	0xbe77c201	-0.241951
231	0xbc98cb02	-0.01865149
232	0x3b655239	0.0034991635
233	0xbc974ad5	-0.0184683
234	0x3e08dd2a	0.13365617
235	0xbe8687b0	-0.26275396
236	0xbb45059f	-0.0030063165
237	0x3ce8c38e	0.02841356
238	0x3d261ef8	0.040556878
239	0x3dab38ff	0.083604805
240	0x3d7ccdf0	0.061719835
241	0x3cffc39c	0.031221204
242	0x3c6d4539	0.014481836
243	0xbcf20879	-0.029545056
244	0xbe55e162	-0.20886758
245	0xbc039038	-0.00802999
246	0x3c8d63f9	0.017259585
247	0xbdd1e18a	-0.10248096
248	0x3b7d1e65	0.0038622853
249	0xbd678210	-0.05652052
250	0xbccf0cf0	-0.025274724
251	0xbc9e31b7	-0.019310815
252	0x3d5d5766	0.054038428
253	0x3dc73a3d	0.09727905
254	0xbbe04fdb	-0.006845457
255	0x3de302ea	0.1108454

bias f4 [64]
0	0x3d5d892e	0.054085903
1	0x3d1f17d5	0.038841087
2	0x3e249e11	0.16075923
3	0x3dea1698	0.11430091
4	0x3dfdb0c6	0.123872325
5	0x3d01e22f	0.031709846
6	0x3de99c8e	0.114068136
7	0x3e4711a8	0.19440329
8	0x3dca1246	0.09866767
9	0x3e34f213	0.17670469
10	0x3e0c1609	0.1368028
11	0x3d4cf9ae	0.0500428
12	0x3e69a36f	0.22816251
13	0x3d2de157	0.04245123
14	0x3e4fc6a9	0.20290627
15	0x3e3a5c36	0.18199238
16	0x3e60201e	0.21887252
17	0xbc287e54	-0.010284025
18	0x3e28522d	0.16437598
19	0x3e12a532	0.1432083
20	0x3e95c119	0.29248884
21	0x3df28347	0.118414454
22	0x3cb1519f	0.021645365
23	0x3ea704d8	0.32620883
24	0x3e35b39e	0.177443
25	0x3e24861b	0.16066782
26	0x3dc3aebf	0.095548145
27	0x3cdf26a8	0.027240112
28	0x3e3cfe22	0.18456319
29	0xbcdf278e	-0.02724054
30	0x3e45b0db	0.19305746
31	0x3e3e1c1d	0.18565412
32	0xbd0aae7d	-0.03385781
33	0x3e895401	0.26821902
34	0x3c18b2a5	0.009319936
35	0x3e1f6a31	0.15567853
36	0x3de34240	0.110966206
37	0x3c820f34	0.01587639
38	0x3d38f9f0	0.045160234
39	0x3c9cc205	0.019135484
40	0x3e8d8dbe	0.27647203
41	0x3cfadcee	0.030622926
42	0x3e052064	0.13000637
43	0x3e28a69f	0.16469811
44	0x3e07be5d	0.13256212
45	0x3e04824b	0.12940328
46	0x3e190c3d	0.14946075
47	0x3c5043e6	0.012711501
48	0xbdb40db1	-0.08791674
49	0x3d53cb14	0.051707342
50	0x3e1134c3	0.14180283
51	0x3e45c1bf	0.1931219
52	0x3e23f5da	0.16011754
53	0x3bda71c9	0.0066663963
54	0x3de84464	0.113411695
55	0x3d7dc4a9	0.061955128
56	0x3de7cd16	0.11318414
57	0xbd0844ca	-0.033268727
58	0x3e6576c6	0.2240859
59	0x3e60896e	0.21927425
60	0x3e490c52	0.19633606
61	0x3d85a78d	0.065260984
62	0x3e3bd505	0.18342979
63	0x3ee2e8e5	0.4431831

weight f4 [32, 64]
0	0x3d870b0a	0.065939024
1	0x3bb4cea9	0.0055178
2	0x3c871f76	0.016494494
3	0xbc31bf92	-0.010848897
4	0x3c23c48d	0.009995592
5	0xbdccfc63	-0.100090764
6	0xbd24cac4	-0.040232435
7	0xbc455034	-0.012043048
8	0xbd281cf2	-0.04104323
9	0x3d1174fd	0.03551196
10	0x3db72c09	0.08943946
11	0x3d99d6ea	0.07511695
12	0x3d7dedee	0.061994486
13	0x3d56a771	0.05240578
14	0x3c9ea835	0.019367317
15	0xbdc42723	-0.09577777
16	0x3d229939	0.039696906
17	0x3db8b2bc	0.09018466
18	0x3d2f61ed	0.042818
19	0x3a009751	0.00049053604
20	0x3d3ce235	0.046114165
21	0x3c0fefba	0.008785183
22	0x3daae852	0.08345093
23	0x3da94574	0.082652
24	0xbe06f42d	-0.13179083
25	0xbda946e2	-0.08265473
26	0x3d727dc1	0.05920196
27	0xbd6c2d1b	-0.057660203
28	0xbd747245	-0.05967929
29	0xbc2539e3	-0.010084602
30	0x3dcf2c95	0.10115925
31	0x3d894b26	0.067037866
32	0x3da1c098	0.078980625
33	0xbd187009	-0.03721622
34	0x3c7dc588	0.01548899
35	0x3caf6c00	0.021413803
36	0x3d7f19fd	0.062280644
37	0x3d9297ef	0.07157885
38	0x3d79e77d	0.06101178
39	0x3d02b565	0.031911273
40	0x3cfc81ae	0.030823555
41	0x3d722124	0.059113637
42	0x3debf624	0.11521557
43	0xbda5e9d6	-0.08101241
44	0x3d85a175	0.06524936
45	0x3da1b3ef	0.07895648
46	0x3dbece94	0.093167454
47	0x3ca9edf6	0.020743351
48	0xbdd99f2d	-0.106260635
49	0x3d9ef8ef	0.07762324
50	0x3daf2008	0.08551031
51	0xbd1e8f7a	-0.03871105
52	0x3da27aa3	0.07933547
53	0xbde32d37	-0.110926084
54	0xbdd2fdc7	-0.103023104
55	0xbc7165c5	-0.014733736
56	0xbe12b947	-0.1432849
57	0xbd26d90a	-0.04073433
58	0x3da05a62	0.07829739
59	0xbe4cf6f0	-0.20016074
60	0x3de8edf3	0.1137351
61	0xbbb80086	-0.005615297
62	0x3da8157a	0.08207221
63	0x3df3af2b	0.11898645
64	0x3c0cd99e	0.008596806
65	0x3d5ce5fb	0.053930264
66	0x3d11b2a3	0.035570752
67	0xbcee1dab	-0.029066881
68	0xbdc0d69e	-0.09415935
69	0xbd37d1db	-0.04487787
70	0x3d8aebee	0.06783281
71	0x3d697895	0.05699976
72	0x3bde2817	0.0067796814
73	0x3d220e19	0.039564226
74	0xbbd24e0e	-0.0064179963
75	0xbdcc9dee	-0.0999106
76	0x3cfbdea7	0.030745817
77	0xbd0c7ced	-0.034298826
78	0xbd977355	-0.07395045
79	0x3d5c6c18	0.053814024
80	0xbd98160a	-0.074260786
81	0xbc4999f0	-0.012304768
82	0x3dc90ae4	0.0981653
83	0x3caa0181	0.02075267
84	0xbcb6e837	-0.022327526
85	0x3db433be	0.087989315
86	0x3c867023	0.016410893
87	0xbdda4d71	-0.10659302
88	0x3d9ea029	0.07745392
89	0x3c03ed6e	0.008052213
90	0x3cdb23bf	0.026750444
91	0xbe022962	-0.12711099
92	0x3b04dfb5	0.0020274941
93	0x3d918227	0.07104903
94	0x3d6d8a19	0.05799303
95	0xbd03a95d	-0.03214394
96	0x3d440cf6	0.047863923
97	0xbd837697	-0.064191036
98	0x3d047251	0.032335583
99	0x3d7f8653	0.06238396
100	0x3d1c67a2	0.03818477
101	0xbd77bcb6	-0.060482703
102	0x3d442a49	0.04789189
103	0x3d3873fc	0.045032486
104	0x3d950fa4	0.07278374
105	0x3c0d6d82	0.008632066
106	0x3cb07d24	0.021544047
107	0x3da7497d	0.08168314
108	0x3d832dee	0.06405245
109	0x3d8c2758	0.06843442
110	0xbcc98f7d	-0.024604553
111	0xbc87de58	-0.016585514
112	0x3b2c3c42	0.0026281034
113	0xbc910aad	-0.017705286
114	0x3be1bea4	0.006889181
115	0x3d4a8acb	0.04944877
116	0x3cc26505	0.02372981
117	0x3d557599	0.052114103
118	0x3d10b2ed	0.035326887
119	0xbd8bc760	-0.06825137
120	0x3c98459d	0.018587882
121	0xbdb02cc9	-0.08602292
122	0xbd26bb80	-0.040706158
123	0x3d1bbe5d	0.03802334
124	0x3db11986	0.08647446
125	0x3ddf2d15	0.108972706
126	0x3d76c1a9	0.060243282
127	0x3d9b97a7	0.07597285
128	0x3e0834de	0.13301417
129	0xbd1c01e5	-0.038087744
130	0x3cd3748a	0.025812406
131	0xbd55ada5	-0.052167553
132	0x3d5f18fb	0.054467183
133	0xbd1d405a	-0.03839145
134	0x3ddae111	0.10687459
135	0xbd213961	-0.03936136
136	0xbdf972e9	-0.121801205
137	0x3d335576	0.043782674
138	0x3d7c635c	0.061618194
139	0xbd0d3811	-0.034477297
140	0x3d66ba20	0.056329846
141	0x3d282748	0.041053087
142	0xbd57bca2	-0.05267013
143	0xbd3c75da	-0.04601083
144	0xbaf28bf1	-0.001850484
145	0x3c2ba330	0.010475919
146	0x3d73a602	0.05948449
147	0x3cd1fd3d	0.025633449
148	0x3de1c90e	0.11024676
149	0x3cb5af3f	0.02217829
150	0x3dc307ae	0.09522949
151	0x3d28e536	0.041234218
152	0xbd163aed	-0.03667729
153	0xbdac86bf	-0.08424138
154	0x3d934ec9	0.071927615
155	0x3d869a4b	0.06572398
156	0xbdba5f38	-0.09100193
157	0xbced2075	-0.02894614
158	0x3d222c53	0.039593052
159	0x3ca30ea1	0.019904437
160	0x3deccaa5	0.11562089
161	0xbd5f7da6	-0.054563187
162	0xbd06c47d	-0.03290223
163	0x3db20e3a	0.0869412
164	0x3d4b5c5f	0.04964864
165	0xbc06ba6b	-0.008223156
166	0x3d974701	0.0738659
167	0x3d32d2a0	0.0436579
168	0x3d2bbf80	0.041930676
169	0xbcdb4a11	-0.026768716
170	0x3dcfe4fa	0.10151096
171	0xbcaeed80	-0.021353483
172	0x3d0ceb6e	0.03440421
173	0x3d654de2	0.055982478
174	0x3d8f942d	0.07010684
175	0xbb98d73f	-0.004664331
176	0xbd6464b1	-0.05576009
177	0x3d758436	0.05994054
178	0x3dee2428	0.1162799
179	0xbd66bd67	-0.056332972
180	0x3dcda478	0.100411355
181	0x3d073ff0	0.03301996
182	0xbd8613f4	-0.065467745
183	0x3d3d5cc2	0.04623104
184	0xbe1098fe	-0.14120862
185	0xbc135a39	-0.008993679
186	0x3b424fac	0.002964954
187	0xbdbb9589	-0.09159381
188	0x3e0338df	0.12814663
189	0xbc2ec4cc	-0.010667037
190	0xbad12074	-0.0015955106
191	0x3d8393af	0.06424653
192	0x3dac16b3	0.08402767
193	0xbd954fbd	-0.072905995
194	0x3ded09c3	0.115741275
195	0x3d8785b6	0.066173
196	0x3c191c62	0.009345146
197	0xbd18f427	-0.037342217
198	0x3db43330	0.08798826
199	0xbc9ee6a3	-0.019397086
200	0xbbd55432	-0.006510281
201	0xbdd17150	-0.10226691
202	0xbcff9114	-0.031197108
203	0x3c290863	0.010316941
204	0xbd439dad	-0.047757793
205	0x3dcaa2d3	0.098943375
206	0x3c936205	0.017991075
207	0x3d9b78fb	0.075914346
208	0x3d496b89	0.04917482
209	0xbc97c08d	-0.018524433
210	0x3c1b6f82	0.009487035
211	0x3dd3388e	0.10313521
212	0xbcedf7d8	-0.029048845
213	0x3db643c6	0.088996455
214	0x3d9ffc61	0.07811809
215	0x3d8bc436	0.06824534
216	0xbce69122	-0.028145377
217	0x3c05aa2f	0.008158251
218	0xbd68388b	-0.05669455
219	0x3dcc813e	0.099855885
220	0x3d61af9d	0.05509912
221	0x3d0a99e5	0.03383817
222	0x3cd5b1cf	0.026085762
223	0x3cf1658a	0.029467363
224	0x3d36c469	0.044620905
225	0xbc1718c1	-0.00922221
226	0xbd3a8a04	-0.04554178
227	0x3dbc43cb	0.09192618
228	0xbdb648dc	-0.089006156
229	0x3d7b55b3	0.061361026
230	0x3db79cf7	0.089654855
231	0xbdeec054	-0.116577774
232	0xbe1fea5f	-0.15616749
233	0x3c3f5855	0.011678775
234	0x3d1f6247	0.038912084
235	0xbd0b48aa	-0.034004845
236	0xbd86b6f1	-0.06577862
237	0xbc54cb59	-0.012987935
238	0xbb156ba8	-0.0022799764
239	0x3dbe0ebb	0.09280153
240	0xbd7e8aed	-0.06214421
241	0xbd7ed5de	-0.06221568
242	0xbc98761c	-0.018611006
243	0x3cc836ee	0.024440255
244	0xbc3be05d	-0.011467067
245	0xbdeb2fbe	-0.114837155
246	0x3da06112	0.07831015
247	0x3dd89975	0.105761446
248	0x3d36e0a8	0.044647843
249	0x3dee5011	0.11636365
250	0xbd24d0fe	-0.040238373
251	0xbd2fdccc	-0.042935178
252	0x3dbc7a94	0.092030674
253	0x3dc193c4	0.09452012
254	0x3dd6f446	0.1049581
255	0xbd60a6e7	-0.05484667

bias f4 [32]
0	0xbc85bbb7	-0.016324861
1	0x3e1f2dc2	0.15544799
2	0x3dc10804	0.09425357
3	0x3d55f081	0.052231316
4	0x3e03066d	0.1279542
5	0x3e888f7b	0.26671967
6	0x3e321815	0.17391999
7	0x3e9d9875	0.30780378
8	0xbd49eef9	-0.049300168
9	0x3ded3e3e	0.115841374
10	0x3db9cc3d	0.090721585
11	0x3dd4764e	0.10374127
12	0x3e96e0bc	0.29468334
13	0x3e8601e9	0.26173332
14	0x3e9770bc	0.29578197
15	0x3d5e9423	0.054340493
16	0x3e9e2091	0.3088422
17	0x3d97ffba	0.07421823
18	0x3e6c010d	0.23047276
19	0x3dd8859d	0.1057236
20	0x3df80574	0.12110415
21	0x3de706bf	0.112805836
22	0x3e02529c	0.12726825
23	0x3ed11019	0.40832594
24	0x3da5b824	0.08091763
25	0x3e2ee32b	0.17078845
26	0xbe0283f1	-0.12745644
27	0xbc731038	-0.01483541
28	0x3e41972c	0.18905324
29	0xbdf233ca	-0.11826284
30	0x3e18ab81	0.14909174
31	0x3cea7d1d	0.028624112

weight f4 [3, 32]
0	0xbd866213	-0.06561675
1	0xbd916547	-0.07099395
2	0xbdaefd70	-0.08544433
3	0x3d62eb7e	0.055400364
4	0xbcf404e3	-0.029787486
5	0xbd099ad7	-0.033594932
6	0x3bdfbb88	0.0068277754
7	0xbd45bbf8	-0.048274964
8	0xbe27e0cc	-0.16394347
9	0xbdd2cc65	-0.102928914
10	0xbcb78e3d	-0.022406692
11	0x3c8af53e	0.016962644
12	0xbd87def0	-0.06634319
13	0x3cf46576	0.029833537
14	0xbcbc60b3	-0.022995329
15	0xbcf5324b	-0.029931208
16	0xbd841cee	-0.064508304
17	0x3d6d6189	0.057954345
18	0x3db19e98	0.086728275
19	0x3d309795	0.04311331
20	0xbd83376f	-0.064070575
21	0x3e068640	0.1313715
22	0x3dadc7b7	0.08485358
23	0xbcb273cb	-0.02178373
24	0xbd9d099d	-0.07667849
25	0x3d713617	0.058889475
26	0x3e09a0e6	0.13440284
27	0xbe1190aa	-0.14215341
28	0x3d92e830	0.071731925
29	0xbb86334b	-0.00409547
30	0xbddd0be2	-0.10793282
31	0x3c881f14	0.016616382
32	0x3d982603	0.07429125
33	0x3dd89da5	0.10576943
34	0x3dbe11a6	0.0928071
35	0x3e1a3cfa	0.15062323
36	0x3d875209	0.06607444
37	0x3dddf91d	0.1083853
38	0x3d9f7b74	0.07787219
39	0x3d92a674	0.07160655
40	0xbd92bb26	-0.07164602
41	0x3dcc9ad5	0.09990469
42	0x3db1ff88	0.08691317
43	0x3dff1ea1	0.12457014
44	0x3d7de076	0.06198164
45	0x3dab9f02	0.08379938
46	0x3df19e6d	0.117977954
47	0x3dffabe3	0.12483957
48	0x3d843c1b	0.06456777
49	0x3db44af8	0.08803362
50	0x3e212b2f	0.1573913
51	0x3da3aedf	0.079923384
52	0x3dec9864	0.11552504
53	0x3d978921	0.07399202
54	0x3dcf6813	0.101272725
55	0x3d7aeb77	0.061259713
56	0x3d984b8b	0.07436284
57	0x3daef60a	0.08543022
58	0xbcbeaef5	-0.023276785
59	0xbda2732b	-0.07932123
60	0x3d9d220f	0.07672512
61	0xbd60e570	-0.05490631
62	0x3d958237	0.07300227
63	0x3da33bdf	0.07970404
64	0xbd4d7ce9	-0.05016795
65	0x3dc313d3	0.095252655
66	0xbd1da8d3	-0.03849108
67	0xbdb1990a	-0.08671768
68	0xbd830f29	-0.06399376
69	0xbdb2f4bc	-0.08738086
70	0xbdb29908	-0.08720595
71	0xbd5260a1	-0.051361684
72	0x3d377c3f	0.044796225
73	0x3d5af5b6	0.053456984
74	0xbd9553ad	-0.072913505
75	0x3df6c8ac	0.12049994
76	0x3c721b06	0.014776951
77	0x3db7cc45	0.08974508
78	0x3ca18877	0.019718392
79	0x3db9e7e3	0.09077432
80	0x3cff130c	0.031137012
81	0x3d96b1e1	0.073581465
82	0xbd9a7fc7	-0.07543903
83	0xbd968c86	-0.073510215
84	0x3dcf156f	0.1011151
85	0x3e1310a9	0.14361824
86	0xbd1add2c	-0.037808582
87	0x3d47aab6	0.048746787
88	0xbc7d8b3d	-0.0154750915
89	0xbd8d94f0	-0.06913173
90	0x3e4a4318	0.19752157
91	0x3dd0b670	0.10191047
92	0xbb53e6bd	-0.0032333576
93	0x3b6108dc	0.0034337556
94	0xbd831ad5	-0.06401602
95	0xbdbb3b35	-0.09142152

bias f4 [3]
0	0x3e13ca1a	0.14432564
1	0x3e4d7197	0.20062862
2	0x3d9d2d65	0.07674674
